session-4/solution/checkpoints/checkpoint.pt (torch, 7103 bytes, 5 tensors)

fc1.weight f4 [64, 13]
0	0xbd9e613e	-0.07733391
1	0x3dc4ab3e	0.09602974
2	0xbd7b9b0f	-0.061427172
3	0x3e62b0ee	0.22137806
4	0xbb738f87	-0.0037164406
5	0x3e10ba5b	0.14133589
6	0xbe82a6eb	-0.25517973
7	0xbddac609	-0.106823035
8	0xbe25e5bf	-0.16200922
9	0x3e996829	0.2996228
10	0xbb10dcc8	-0.0022104252
11	0xbea7585e	-0.32684606
12	0x3e4fd197	0.20294796
13	0x3e428e27	0.1899954
14	0xbd66fb8e	-0.056392245
15	0x3c7a7e3a	0.015288884
16	0x3d137f75	0.036010224
17	0x3e2acb4b	0.16679113
18	0xbd4cf7d6	-0.050041042
19	0xbe7dfe9d	-0.24804159
20	0x3dbd2173	0.092348956
21	0xbd6f1cfd	-0.058377255
22	0xbe8031f8	-0.25038123
23	0x3da114a7	0.07865267
24	0xbe220a52	-0.1582425
25	0x3e4b1754	0.19833118
26	0xbabc99d4	-0.0014389106
27	0x3e0fb905	0.14035423
28	0xbe18c6c6	-0.14919576
29	0x3d730844	0.059334055
30	0xbb17626f	-0.0023099442
31	0x3e560969	0.20902027
32	0x3e7cc3e0	0.24684095
33	0x3d982004	0.074279815
34	0x3d41c9ac	0.04731147
35	0xbe268757	-0.16262566
36	0xbe5a2082	-0.21301463
37	0xbe3d4ceb	-0.18486373
38	0xbe07fcff	-0.13280104
39	0x3d46103f	0.048355337
40	0xbe14e1ec	-0.14539307
41	0x3e429c39	0.19004907
42	0xbe79d96d	-0.24399348
43	0xbe4c7142	-0.1996508
44	0x3dc03f06	0.09387021
45	0x3d1521c1	0.036409143
46	0x3cbc2f47	0.022971762
47	0xbe71c6b0	-0.2361095
48	0x3e1bdb45	0.15220363
49	0x3b90bc17	0.0044169533
50	0x3e8e8149	0.27833012
51	0x3e4b9e0e	0.19884512
52	0x3e9c6ea3	0.3055316
53	0xbe3675dc	-0.17818397
54	0x3e0b4912	0.13602093
55	0xbdd4a92a	-0.10383828
56	0xbe0bb896	-0.13644633
57	0xbba5a66f	-0.005055241
58	0x3ce781f1	0.028260203
59	0xbd840399	-0.06445999
60	0x3e0de4b6	0.13856778
61	0x3dd8425f	0.10559534
62	0xbe8200ee	-0.25391334
63	0x3e6ebb4a	0.23313633
64	0xbddd81f8	-0.10815805
65	0xbdf5abfe	-0.119956955
66	0x3bed02df	0.0072330083
67	0x3cfbb15c	0.03072422
68	0x3e80e5ae	0.25175232
69	0x3e4216ef	0.18954061
70	0xbee59574	-0.44840586
71	0x3e777e95	0.24169381
72	0xbe5e3cff	-0.21702956
73	0xbe87b682	-0.2650643
74	0x3e205b97	0.15659939
75	0xbe9a3002	-0.30114752
76	0x3b4faf4a	0.0031690174
77	0xbd137cf7	-0.036007848
78	0xbe5b671a	-0.21426049
79	0x3e245d00	0.16051102
80	0xbe72be33	-0.23705368
81	0x3e15b3e8	0.1461941
82	0x3df504b6	0.11963789
83	0xbe97cf4c	-0.29650342
84	0x3dee4594	0.11634365
85	0xbe9d6694	-0.30742323
86	0xbd3ca5b9	-0.046056483
87	0x3cef3e4f	0.029204516
88	0xbe8348d4	-0.256415
89	0x3e494633	0.19655685
90	0xbdeda6e3	-0.11604097
91	0x3e2902d4	0.16504985
92	0xbe477e92	-0.19481876
93	0xbd831c58	-0.064018905
94	0xbe2d92f5	-0.16950591
95	0x3e2bde55	0.16784032
96	0xbd958f1a	-0.07302685
97	0x3e89beb3	0.26903304
98	0x3d638f9c	0.05555688
99	0xbe760bdd	-0.24027963
100	0xbe3c3f51	-0.18383528
101	0xbcd3cd24	-0.025854655
102	0x3e98005c	0.29687774
103	0xbe3303d8	-0.17481935
104	0x3eb2b04f	0.34900138
105	0x3dbf8e3d	0.09353302
106	0xbe15069c	-0.14553303
107	0xbda3002f	-0.079590194
108	0x3d88cad7	0.06679314
109	0x3e9361fd	0.28785697
110	0x3df9250d	0.1216527
111	0xbe6fab46	-0.2340518
112	0x3e88f722	0.26751047
113	0x3e3f7c63	0.18699794
114	0xbe0c1a31	-0.13681866
115	0x3e63af31	0.22234799
116	0x3e0c3844	0.13693339
117	0x3ccedc47	0.02525152
118	0xbdb095c8	-0.086223185
119	0x3dca98c6	0.098924205
120	0xbe69168b	-0.22762506
121	0xbe6ae88b	-0.2294027
122	0xbdb3348c	-0.08750257
123	0xbdb44ddd	-0.08803914
124	0xbe48e95e	-0.19620273
125	0x3c8ebb6b	0.017423352
126	0xbe72a2ec	-0.23694962
127	0x3d1c737b	0.03819607
128	0x3a7bac5f	0.00096005754
129	0x3dec74e9	0.11545736
130	0x3e48a1c1	0.19592954
131	0xbce67089	-0.028129833
132	0xbe62ccdc	-0.2214846
133	0x3de7c5a7	0.11316996
134	0x3e8d5064	0.27600396
135	0x3e5e1d3d	0.21690841
136	0xbe406b3b	-0.18790905
137	0x3e2d5d42	0.16930106
138	0x3e56eb2c	0.20988148
139	0x3d74debb	0.059782725
140	0x3d409356	0.04701551
141	0x3e2f3369	0.17109455
142	0x3d71ae8e	0.05900436
143	0x3d50d93b	0.050988417
144	0x3d2d4562	0.042302497
145	0xbc18faa2	-0.009337099
146	0xbe3406b3	-0.1758068
147	0x3be9a4d0	0.007130243
148	0x3e620a40	0.22074223
149	0x3e2f7f81	0.17138483
150	0xbe88a176	-0.26685685
151	0x3e7d5d1f	0.24742554
152	0x3e35f2ec	0.17768449
153	0xbe09be4d	-0.134515
154	0xbdeb86ca	-0.11500318
155	0xbd4f514c	-0.05061464
156	0x3e40e6e4	0.18838078
157	0xbc23760f	-0.009976878
158	0x3e79ac6f	0.24382184
159	0x3de48894	0.11158863
160	0x3db9d20f	0.090732686
161	0xbe40f065	-0.18841703
162	0xbe10e7a4	-0.14150864
163	0x3de17e76	0.11010449
164	0xbe27cc5d	-0.16386552
165	0xbe4010ed	-0.18756457
166	0x3e464d12	0.19365337
167	0x3d16e7a3	0.036842
168	0xbe05ccce	-0.13066408
169	0xbe722a39	-0.23648919
170	0x3e001af7	0.12510286
171	0x3e8d6532	0.27616268
172	0x3e33a267	0.1754242
173	0x3df1cb2e	0.118063316
174	0xbe1ca398	-0.15296781
175	0xbe3a6531	-0.18202664
176	0x3e40a47d	0.18812747
177	0xbe04d6ba	-0.12972537
178	0xbe815886	-0.2526285
179	0x3e464506	0.19362268
180	0xbdcb3bc6	-0.0992351
181	0x3e120c5a	0.14262524
182	0xbe4cf4b8	-0.20015228
183	0x3da1241f	0.07868218
184	0x3e3d394c	0.18478888
185	0x3d49d16f	0.049271997
186	0x3cebe3e2	0.028795186
187	0xbe3a3dd8	-0.18187654
188	0xbdac1edd	-0.08404324
189	0xbe5456b5	-0.20736201
190	0x3e06d75b	0.13168089
191	0xbdc1aeec	-0.09457192
192	0xbe508aa5	-0.20365389
193	0x3dbf67d2	0.09345974
194	0xbdc230d7	-0.09481972
195	0x3e64f856	0.22360358
196	0x3d13f1a4	0.03611912
197	0xbd9a93c1	-0.07547713
198	0xbe8f2e1b	-0.27964863
199	0x3e8d118d	0.27552453
200	0xbe94b68a	-0.29045516
201	0x3ceb19ad	0.028698767
202	0x3e684fd9	0.2268671
203	0x3e48dcba	0.1961545
204	0x3d239017	0.039932337
205	0xbe39ec67	-0.18156587
206	0xbe645513	-0.22298078
207	0xbe786203	-0.24256139
208	0xbc8a5404	-0.016885765
209	0x3e2b0efc	0.16704935
210	0x3cb64bba	0.022252906
211	0x3e297041	0.16546728
212	0xbe81e6da	-0.25371438
213	0xbdda56ee	-0.10661112
214	0xbe0dbe41	-0.13842107
215	0xbe646dcd	-0.2230751
216	0x3dfdbc38	0.123894155
217	0x3c394025	0.011306797
218	0x3e5d2078	0.21594417
219	0x3d88a63d	0.066723324
220	0x3e3d26ee	0.18471882
221	0xbdabe085	-0.08392433
222	0xbdbc7cfa	-0.09203525
223	0x3a2e5a64	0.00066510425
224	0xbe0e5303	-0.13898854
225	0xbdf30264	-0.1186569
226	0xbda17136	-0.078829214
227	0xbdb883d3	-0.090095185
228	0xbdcf0626	-0.101085946
229	0xbe11c92b	-0.14236896
230	0xbdc260ed	-0.094911434
231	0x3e55c403	0.20875554
232	0xbd994e74	-0.07485667
233	0x3da30f27	0.079618745
234	0xbc4afa83	-0.012388828
235	0x3cf5497f	0.029942272
236	0x3ccf86ec	0.02533289
237	0x3e4d96a3	0.20076995
238	0x3d8f39b5	0.069934286
239	0x3e41cc87	0.18925677
240	0xbda94c20	-0.08266473
241	0x3d336341	0.043795828
242	0x3e0db0da	0.13836995
243	0xbe5b855e	-0.21437594
244	0x3e57a18d	0.2105772
245	0x3d5d24c8	0.053990155
246	0xbd240fe2	-0.04005421
247	0xbe1b6a0e	-0.15177175
248	0x3e60d326	0.21955547
249	0x3e7cb97b	0.2468013
250	0x3e0ca48e	0.13734648
251	0xbd9b580e	-0.075851545
252	0xbe17c649	-0.14821734
253	0x3d39321d	0.045213807
254	0x3e193639	0.1496209
255	0x3e47dc75	0.19517691

fc1.bias f4 [64]
0	0x3e1b5b9f	0.1517167
1	0x3cd2bd04	0.025724895
2	0x3dfec3fe	0.12439726
3	0xbe5eb11d	-0.21747251
4	0xbdc9ea1d	-0.09859107
5	0xbe85931e	-0.26088804
6	0x3e347b26	0.17625102
7	0xbd447c90	-0.047970355
8	0x3d5cc07e	0.053894512
9	0xbdee33ff	-0.11631011
10	0xbe028df6	-0.12749466
11	0xbe3f10ce	-0.18658754
12	0x3d2e5f56	0.04257139
13	0x3e69c1f4	0.22827893
14	0xbe10d441	-0.14143468
15	0xbe1642a2	-0.14673856
16	0x3db7a15d	0.089663245
17	0x3e853ee6	0.2602455
18	0x3d2fa795	0.042884428
19	0xbde1c6c7	-0.11024242
20	0xbe5f1c60	-0.21788168
21	0x3bf4ce35	0.007470871
22	0x3d061e7d	0.03274392
23	0xbe38ca69	-0.18045963
24	0xbdc784e2	-0.09742142
25	0x3d23ab34	0.039958194
26	0xbe47f5c1	-0.19527341
27	0x3cd1d353	0.025613463
28	0xbe322a97	-0.17399059
29	0xbe123407	-0.1427766
30	0x3db1598c	0.08659658
31	0xbe4f6903	-0.20254903
32	0x3e197f88	0.14990056
33	0x3d7fcd92	0.062451907
34	0xbd8180d2	-0.06323399
35	0xbdbbdd4b	-0.09173068
36	0x3eed6742	0.46367842
37	0xbe8334fb	-0.25626358
38	0xbe9790df	-0.29602715
39	0x3d497c1e	0.049190633
40	0x3e35c3d9	0.17750491
41	0x3e38a6e2	0.1803241
42	0xbca6ca87	-0.020360244
43	0xbe87769c	-0.2645768
44	0xbe52f17d	-0.20599933
45	0x3d341648	0.04396656
46	0x3ec97ab6	0.39351434
47	0x3c032847	0.008005208
48	0xbe9e4fd9	-0.30920294
49	0x3e65e94c	0.22452277
50	0x3db34462	0.08753277
51	0xbb11a739	-0.0022224917
52	0x3cf7e0eb	0.030258616
53	0xbde943d9	-0.11389894
54	0x3dcac7f8	0.09901422
55	0x3e3daa5a	0.18522015
56	0xbe5c851a	-0.21535149
57	0xbe5c1218	-0.21491277
58	0x3d892cc4	0.066979915
59	0x3e52d64b	0.20589559
60	0xbe3fc22f	-0.18726419
61	0xbe4e876b	-0.20168845
62	0x3e6ec5dc	0.23317665
63	0x3e735eb2	0.23766592

fc2.weight f4 [1, 64]
0	0x3dd87068	0.10568315
1	0xbd4bbf4f	-0.049742993
2	0xbdd78c4c	-0.105248064
3	0xbd5f4242	-0.054506548
4	0x3d897172	0.06711091
5	0x3e8c5536	0.2740876
6	0x3e1b3032	0.15155104
7	0xbdf6a0a6	-0.1204236
8	0x3e6e24f6	0.23256287
9	0x3d3ba129	0.04580799
10	0xbc0ce37d	-0.008599159
11	0x3da1c270	0.07898414
12	0xbc141c98	-0.00904002
13	0xbc2fca14	-0.0107293315
14	0x3db00eac	0.085965484
15	0xbe27a5b1	-0.163718
16	0x389aa0f8	7.373275e-05
17	0x3c625193	0.013813394
18	0x3d1cc664	0.038275138
19	0x3d56b133	0.052415084
20	0x3d49384c	0.049125955
21	0xbcb930ef	-0.022606341
22	0x3dc633b9	0.09677834
23	0x3d0fefb7	0.03514072
24	0xbd37ef71	-0.044906083
25	0xbd20266c	-0.039099142
26	0x3ea4fcf9	0.32224253
27	0xbc68b4a3	-0.014203223
28	0xbc174e38	-0.009234957
29	0x3de69812	0.11259474
30	0x3952a4cc	0.00020088552
31	0xbdbaf7f2	-0.09129323
32	0xbdd21c8f	-0.10259353
33	0xbd4d9e6a	-0.050199904
34	0xbcd8b8cb	-0.026455304
35	0xbd9e91fd	-0.07742689
36	0xbeeb0d73	-0.45908698
37	0x3e270b88	0.16312993
38	0xbdc30210	-0.09521878
39	0x3ca5bc50	0.020231396
40	0xbe0bf56d	-0.13667841
41	0xbe00e1e3	-0.12586169
42	0xbe15d8d2	-0.14633492
43	0xbd0bb804	-0.034111038
44	0xbd26a5de	-0.040685527
45	0xbe249dfd	-0.16075893
46	0xbe757a9c	-0.23972553
47	0x3b8f0d4c	0.004365599
48	0x3eb13371	0.3460956
49	0xbd3d97fe	-0.04628753
50	0xbd6e7104	-0.05821325
51	0x3d5ca372	0.05386681
52	0xbd713d48	-0.058896333
53	0x3c3050e6	0.010761475
54	0xbdd29fb1	-0.10284365
55	0xbda0e8e7	-0.078569226
56	0x3d5858ce	0.052819066
57	0xbd53b499	-0.051685903
58	0x3e074f13	0.13213758
59	0x3e4afef0	0.19823813
60	0xbdecd727	-0.115644746
61	0xbe07dadd	-0.13267083
62	0x3d92634d	0.07147846
63	0xbe97507c	-0.29553592

x_mean f4 [13]
0	0x407eb41e	3.9797435
1	0x4144c3f3	12.297839
2	0x41317ecd	11.093457
3	0x3d97b426	0.074074075
4	0x3f0d4013	0.55175894
5	0x40c83c0d	6.2573304
6	0x428932ba	68.599075
7	0x40745a29	3.818003
8	0x411a9e06	9.66358
9	0x43cdd620	411.67285
10	0x4194aaab	18.583334
11	0x43b4012a	360.0091
12	0x4150d5e7	13.052222

x_std f4 [13]
0	0x411da500	9.852783
1	0x41ca1daa	25.264484
2	0x40dac7d4	6.836893
3	0x3e864bba	0.2622965
4	0x3deadcaf	0.11467873
5	0x3f3050ef	0.68873495
6	0x41e04c9e	28.03741
7	0x400824c0	2.127243
8	0x410ce066	8.804785
9	0x43282c0c	168.17206
10	0x4002dd44	2.044755
11	0x42b1339e	88.600815
12	0x40ead75f	7.3387904
